…
  include {
    phase: TRAIN
  }
  memory_data_param {
    batch_size: 32
    channels: 4
    height: 84
    width: 84
  }
}
layer {
  name: "target_input_layer"
  type: "MemoryData"
  top: "target"
  top: "dummy_target"
  include {
    phase: TRAIN
  }
  memory_data_param {
    batch_size: 32
    channels: 18
    height: 1
    width: 1
  }
}
layer {
  name: "filter_input_layer"
  type: "MemoryData"
  top: "filter"
  top: "dummy_filter"
  include {
    phase: TRAIN
  }
  memory_data_param {
    batch_size: 32
    channels: 18
    height: 1
    width: 1
  }
}
layer {
  name: "silence"
  type: "Silence"
  bottom: "dummy_frames"
  bottom: "dummy_filter"
  bottom: "dummy_target"
  include {
    phase: TRAIN
  }
}
layer {
  name: "reshape_filter"
  type: "Reshape"
  bottom: "filter"
  top: "reshaped_filter"
  include {
    phase: TRAIN
  }
  reshape_param {
    shape {
      dim: 32
      dim: 18
    }
  }
}
layer {
  name: "conv1"
  type: "Convolution"
  bottom: "frames"
  top: "conv1"
  param {
    name: "conv1_w"
    decay_mult: 1
  }
  param {
    name: "conv1_b"
    decay_mult: 0
  }
  include {
    phase: TRAIN
  }
  convolution_param {
    num_output: 32
    kernel_size: 8
    stride: 4
    weight_filler {
      type: "gaussian"
      std: 0.01
    }
    bias_filler {
      type: "constant"
      value: 0
    }
  }
}
layer {
  name: "conv1_relu_layer"
  type: "ReLU"
  bottom: "conv1"
  top: "conv1"
  relu_param {
    negative_slope: 0.01
  }
}
layer {
  name: "conv2"
  type: "Convolution"
  bottom: "conv1"
  top: "conv2"
  param {
    name: "conv2_w"
    decay_mult: 1
  }
  param {
    name: "conv2_b"
    decay_mult: 0
  }
  convolution_param {
    num_output: 64
    kernel_size: 4
    stride: 2
    weight_filler {
      type: "gaussian"
      std: 0.01
    }
    bias_filler {
      type: "constant"
      value: 0
    }
  }
}
layer {
  name: "conv2_relu_layer"
  type: "ReLU"
  bottom: "conv2"
  top: "conv2"
  relu_param {
    negative_slope: 0.01
  }
}
layer {
  name: "ip1_layer"
  type: "InnerProduct"
  bottom: "conv2"
  top: "ip1"
  inner_product_param {
    num_output: 256
    weight_filler {
      type: "gaussian"
      std: 0.005
    }
    bias_filler {
      type: "constant"
      value: 1
    }
  }
}
layer {
  name: "ip1_relu_layer"
  type: "ReLU"
  bottom: "ip1"
  top: "ip1"
  relu_param {
    negative_slope: 0.01
  }
}
layer {
  name: "ip2_layer"
  type: "InnerProduct"
  bottom: "ip1"
  top: "ip2"
  inner_product_param {
    num_output: 64
    weight_filler {
      type: "gaussian"
      std: 0.005
    }
    bias_filler {
      type: "constant"
      value: 1
    }
  }
}
layer {
  name: "ip1_relu_layer"
  type: "ReLU"
  bottom: "ip2"
  top: "ip2"
  relu_param {
    negative_slope: 0.01
  }
}
layer {
  name: "ip3_layer"
  type: "InnerProduct"
  bottom: "ip2"
  top: "q_values"
  inner_product_param {
    num_output: 18
    weight_filler {
      type: "gaussian"
      std: 0.005
    }
    bias_filler {
      type: "constant"
      value: 1
    }
  }
}
layer {
  name: "eltwise_layer"
  type: "Eltwise"
  bottom: "q_values"
  bottom: "reshaped_filter"
  top: "filtered_q_values"
  include {
    phase: TRAIN
  }
  eltwise_param {
    operation: PROD
  }
}
layer {
  name: "loss"
  type: "EuclideanLoss"
  bottom: "filtered_q_values"
  bottom: "target"
  top: "loss"
  include {
    phase: TRAIN
  }
}
I0107 16:11:00.123529 25390 layer_factory.hpp:76] Creating layer frames_input_layer
I0107 16:11:00.123551 25390 net.cpp:110] Creating Layer frames_input_layer
I0107 16:11:00.123560 25390 net.cpp:433] frames_input_layer -> frames
I0107 16:11:00.123584 25390 net.cpp:433] frames_input_layer -> dummy_frames
I0107 16:11:00.132092 25390 net.cpp:155] Setting up frames_input_layer
I0107 16:11:00.132138 25390 net.cpp:163] Top shape: 32 4 84 84 (903168)
I0107 16:11:00.132145 25390 net.cpp:163] Top shape: 32 (32)
I0107 16:11:00.132156 25390 layer_factory.hpp:76] Creating layer target_input_layer
I0107 16:11:00.132172 25390 net.cpp:110] Creating Layer target_input_layer
I0107 16:11:00.132181 25390 net.cpp:433] target_input_layer -> target
I0107 16:11:00.132196 25390 net.cpp:433] target_input_layer -> dummy_target
I0107 16:11:00.132606 25390 net.cpp:155] Setting up target_input_layer
I0107 16:11:00.132621 25390 net.cpp:163] Top shape: 32 18 1 1 (576)
I0107 16:11:00.132627 25390 net.cpp:163] Top shape: 32 (32)
I0107 16:11:00.132633 25390 layer_factory.hpp:76] Creating layer filter_input_layer
I0107 16:11:00.132642 25390 net.cpp:110] Creating Layer filter_input_layer
I0107 16:11:00.132650 25390 net.cpp:433] filter_input_layer -> filter
I0107 16:11:00.132660 25390 net.cpp:433] filter_input_layer -> dummy_filter
I0107 16:11:00.132730 25390 net.cpp:155] Setting up filter_input_layer
I0107 16:11:00.132738 25390 net.cpp:163] Top shape: 32 18 1 1 (576)
I0107 16:11:00.132745 25390 net.cpp:163] Top shape: 32 (32)
I0107 16:11:00.132750 25390 layer_factory.hpp:76] Creating layer silence
I0107 16:11:00.132762 25390 net.cpp:110] Creating Layer silence
I0107 16:11:00.132771 25390 net.cpp:477] silence <- dummy_frames
I0107 16:11:00.132781 25390 net.cpp:477] silence <- dummy_filter
I0107 16:11:00.132787 25390 net.cpp:477] silence <- dummy_target
I0107 16:11:00.132793 25390 net.cpp:155] Setting up silence
I0107 16:11:00.132798 25390 layer_factory.hpp:76] Creating layer reshape_filter
I0107 16:11:00.132810 25390 net.cpp:110] Creating Layer reshape_filter
I0107 16:11:00.132817 25390 net.cpp:477] reshape_filter <- filter
I0107 16:11:00.132825 25390 net.cpp:433] reshape_filter -> reshaped_filter
I0107 16:11:00.132853 25390 net.cpp:155] Setting up reshape_filter
I0107 16:11:00.132861 25390 net.cpp:163] Top shape: 32 18 (576)
I0107 16:11:00.132868 25390 layer_factory.hpp:76] Creating layer conv1
I0107 16:11:00.132879 25390 net.cpp:110] Creating Layer conv1
I0107 16:11:00.132885 25390 net.cpp:477] conv1 <- frames
I0107 16:11:00.132895 25390 net.cpp:433] conv1 -> conv1
I0107 16:11:00.220360 25390 net.cpp:155] Setting up conv1
I0107 16:11:00.220399 25390 net.cpp:163] Top shape: 32 32 20 20 (409600)
I0107 16:11:00.220422 25390 layer_factory.hpp:76] Creating layer conv1_relu_layer
I0107 16:11:00.220434 25390 net.cpp:110] Creating Layer conv1_relu_layer
I0107 16:11:00.220440 25390 net.cpp:477] conv1_relu_layer <- conv1
I0107 16:11:00.220449 25390 net.cpp:419] conv1_relu_layer -> conv1 (in-place)
I0107 16:11:00.220576 25390 net.cpp:155] Setting up conv1_relu_layer
I0107 16:11:00.220587 25390 net.cpp:163] Top shape: 32 32 20 20 (409600)
I0107 16:11:00.220593 25390 layer_factory.hpp:76] Creating layer conv2
I0107 16:11:00.220605 25390 net.cpp:110] Creating Layer conv2
I0107 16:11:00.220612 25390 net.cpp:477] conv2 <- conv1
I0107 16:11:00.220619 25390 net.cpp:433] conv2 -> conv2
I0107 16:11:00.222590 25390 net.cpp:155] Setting up conv2
I0107 16:11:00.222607 25390 net.cpp:163] Top shape: 32 64 9 9 (165888)
I0107 16:11:00.222618 25390 layer_factory.hpp:76] Creating layer conv2_relu_layer
I0107 16:11:00.222628 25390 net.cpp:110] Creating Layer conv2_relu_layer
I0107 16:11:00.222635 25390 net.cpp:477] conv2_relu_layer <- conv2
I0107 16:11:00.222642 25390 net.cpp:419] conv2_relu_layer -> conv2 (in-place)
I0107 16:11:00.222760 25390 net.cpp:155] Setting up conv2_relu_layer
I0107 16:11:00.222771 25390 net.cpp:163] Top shape: 32 64 9 9 (165888)
I0107 16:11:00.222777 25390 layer_factory.hpp:76] Creating layer ip1_layer
I0107 16:11:00.222791 25390 net.cpp:110] Creating Layer ip1_layer
I0107 16:11:00.222796 25390 net.cpp:477] ip1_layer <- conv2
I0107 16:11:00.222805 25390 net.cpp:433] ip1_layer -> ip1
I0107 16:11:00.261322 25390 net.cpp:155] Setting up ip1_layer
I0107 16:11:00.261354 25390 net.cpp:163] Top shape: 32 256 (8192)
I0107 16:11:00.261378 25390 layer_factory.hpp:76] Creating layer ip1_relu_layer
I0107 16:11:00.261389 25390 net.cpp:110] Creating Layer ip1_relu_layer
I0107 16:11:00.261395 25390 net.cpp:477] ip1_relu_layer <- ip1
I0107 16:11:00.261404 25390 net.cpp:419] ip1_relu_layer -> ip1 (in-place)
I0107 16:11:00.261694 25390 net.cpp:155] Setting up ip1_relu_layer
I0107 16:11:00.261708 25390 net.cpp:163] Top shape: 32 256 (8192)
I0107 16:11:00.261714 25390 layer_factory.hpp:76] Creating layer ip2_layer
I0107 16:11:00.261724 25390 net.cpp:110] Creating Layer ip2_layer
I0107 16:11:00.261729 25390 net.cpp:477] ip2_layer <- ip1
I0107 16:11:00.261737 25390 net.cpp:433] ip2_layer -> ip2
I0107 16:11:00.262287 25390 net.cpp:155] Setting up ip2_layer
I0107 16:11:00.262297 25390 net.cpp:163] Top shape: 32 64 (2048)
I0107 16:11:00.262306 25390 layer_factory.hpp:76] Creating layer ip1_relu_layer
I0107 16:11:00.262315 25390 net.cpp:110] Creating Layer ip1_relu_layer
I0107 16:11:00.262320 25390 net.cpp:477] ip1_relu_layer <- ip2
I0107 16:11:00.262326 25390 net.cpp:419] ip1_relu_layer -> ip2 (in-place)
I0107 16:11:00.262449 25390 net.cpp:155] Setting up ip1_relu_layer
I0107 16:11:00.262459 25390 net.cpp:163] Top shape: 32 64 (2048)
I0107 16:11:00.262465 25390 layer_factory.hpp:76] Creating layer ip3_layer
I0107 16:11:00.262473 25390 net.cpp:110] Creating Layer ip3_layer
I0107 16:11:00.262478 25390 net.cpp:477] ip3_layer <- ip2
I0107 16:11:00.262486 25390 net.cpp:433] ip3_layer -> q_values
I0107 16:11:00.262950 25390 net.cpp:155] Setting up ip3_layer
I0107 16:11:00.262962 25390 net.cpp:163] Top shape: 32 18 (576)
I0107 16:11:00.262975 25390 layer_factory.hpp:76] Creating layer eltwise_layer
I0107 16:11:00.262985 25390 net.cpp:110] Creating Layer eltwise_layer
I0107 16:11:00.262990 25390 net.cpp:477] eltwise_layer <- q_values
I0107 16:11:00.262997 25390 net.cpp:477] eltwise_layer <- reshaped_filter
I0107 16:11:00.263005 25390 net.cpp:433] eltwise_layer -> filtered_q_values
I0107 16:11:00.263033 25390 net.cpp:155] Setting up eltwise_layer
I0107 16:11:00.263041 25390 net.cpp:163] Top shape: 32 18 (576)
I0107 16:11:00.263047 25390 layer_factory.hpp:76] Creating layer loss
I0107 16:11:00.263056 25390 net.cpp:110] Creating Layer loss
I0107 16:11:00.263061 25390 net.cpp:477] loss <- filtered_q_values
I0107 16:11:00.263067 25390 net.cpp:477] loss <- target
I0107 16:11:00.263074 25390 net.cpp:433] loss -> loss
I0107 16:11:00.263116 25390 net.cpp:155] Setting up loss
I0107 16:11:00.263125 25390 net.cpp:163] Top shape: (1)
…
